…
using relative_pos
using relative_pos
using relative_pos
using relative_pos
using relative_pos
using relative_pos
using relative_pos
using relative_pos
Training: |          | 0/? [00:00<?, ?it/s]Training:   0%|          | 0/735 [00:00<?, ?it/s]Epoch 0:   0%|          | 0/735 [00:00<?, ?it/s] hyperparameters: "compile":            False
"learning_rate":      0.0005
"loss":               bce
"lr_rate":            [0.05, 0.02, 0.01, 0.005, 0.002, 0.001, 0.0005, 0.0002]
"lr_scheduler_epoch": [10, 15, 20, 25, 30, 35, 50, 45]
"net":                HGCN(
  (stem): Stem_conv(
    (convs): Sequential(
      (0): Conv2d(1, 40, kernel_size=(3, 3), stride=(2, 2), padding=(1, 1))
      (1): BatchNorm2d(40, eps=1e-05, momentum=0.1, affine=True, track_running_stats=True)
      (2): GELU(approximate='none')
      (3): Conv2d(40, 80, kernel_size=(3, 3), stride=(2, 2), padding=(1, 1))
      (4): BatchNorm2d(80, eps=1e-05, momentum=0.1, affine=True, track_running_stats=True)
      (5): GELU(approximate='none')
      (6): Conv2d(80, 80, kernel_size=(3, 3), stride=(1, 1), padding=(1, 1))
      (7): BatchNorm2d(80, eps=1e-05, momentum=0.1, affine=True, track_running_stats=True)
    )
  )
  (backbone): Sequential(
    (0): Sequential(
      (0): Grapher(
        (fc1): Sequential(
          (0): Conv2d(80, 80, kernel_size=(1, 1), stride=(1, 1))
          (1): BatchNorm2d(80, eps=1e-05, momentum=0.1, affine=True, track_running_stats=True)
        )
        (graph_conv): DyGraphConv2d(
          (gconv): MRConv2d(
            (nn): BasicConv(
              (0): Conv2d(240, 240, kernel_size=(1, 1), stride=(1, 1), groups=4)
              (1): BatchNorm2d(240, eps=1e-05, momentum=0.1, affine=True, track_running_stats=True)
              (2): GELU(approximate='none')
            )
            (get_centroids): HyperedgeConstruction(
              (centers_proposal): AdaptiveAvgPool2d(output_size=(5, 10))
            )
          )
          (dilated_knn_graph): DenseDilatedKnnGraph(
            (_dilated): DenseDilated()
          )
        )
        (fc2): Sequential(
          (0): Conv2d(240, 80, kernel_size=(1, 1), stride=(1, 1))
          (1): BatchNorm2d(80, eps=1e-05, momentum=0.1, affine=True, track_running_stats=True)
        )
        (drop_path): Identity()
      )
      (1): ConvFFN(
        (fc1): Sequential(
          (0): Conv2d(80, 320, kernel_size=(1, 1), stride=(1, 1), bias=False)
          (1): BatchNorm2d(320, eps=1e-05, momentum=0.1, affine=True, track_running_stats=True)
        )
        (act): GELU(approximate='none')
        (fc2): Sequential(
          (0): Conv2d(320, 80, kernel_size=(1, 1), stride=(1, 1), bias=False)
          (1): BatchNorm2d(80, eps=1e-05, momentum=0.1, affine=True, track_running_stats=True)
        )
        (conv): ResDWC(
          (conv): Conv2d(320, 320, kernel_size=(3, 3), stride=(1, 1), padding=(1, 1), groups=320)
        )
        (drop_path): Identity()
      )
    )
    (1): Sequential(
      (0): Grapher(
        (fc1): Sequential(
          (0): Conv2d(80, 80, kernel_size=(1, 1), stride=(1, 1))
          (1): BatchNorm2d(80, eps=1e-05, momentum=0.1, affine=True, track_running_stats=True)
        )
        (graph_conv): DyGraphConv2d(
          (gconv): MRConv2d(
            (nn): BasicConv(
              (0): Conv2d(240, 240, kernel_size=(1, 1), stride=(1, 1), groups=4)
              (1): BatchNorm2d(240, eps=1e-05, momentum=0.1, affine=True, track_running_stats=True)
              (2): GELU(approximate='none')
            )
            (get_centroids): HyperedgeConstruction(
              (centers_proposal): AdaptiveAvgPool2d(output_size=(5, 10))
            )
          )
          (dilated_knn_graph): DenseDilatedKnnGraph(
            (_dilated): DenseDilated()
          )
        )
        (fc2): Sequential(
          (0): Conv2d(240, 80, kernel_size=(1, 1), stride=(1, 1))
          (1): BatchNorm2d(80, eps=1e-05, momentum=0.1, affine=True, track_running_stats=True)
        )
        (drop_path): DropPath()
      )
      (1): ConvFFN(
        (fc1): Sequential(
          (0): Conv2d(80, 320, kernel_size=(1, 1), stride=(1, 1), bias=False)
          (1): BatchNorm2d(320, eps=1e-05, momentum=0.1, affine=True, track_running_stats=True)
        )
        (act): GELU(approximate='none')
        (fc2): Sequential(
          (0): Conv2d(320, 80, kernel_size=(1, 1), stride=(1, 1), bias=False)
          (1): BatchNorm2d(80, eps=1e-05, momentum=0.1, affine=True, track_running_stats=True)
        )
        (conv): ResDWC(
          (conv): Conv2d(320, 320, kernel_size=(3, 3), stride=(1, 1), padding=(1, 1), groups=320)
        )
        (drop_path): DropPath()
      )
    )
    (2): DownSample(
      (conv): Sequential(
        (0): Conv2d(80, 160, kernel_size=(3, 3), stride=(2, 2), padding=(1, 1))
        (1): BatchNorm2d(160, eps=1e-05, momentum=0.1, affine=True, track_running_stats=True)
      )
    )
    (3): Sequential(
      (0): Grapher(
        (fc1): Sequential(
          (0): Conv2d(160, 160, kernel_size=(1, 1), stride=(1, 1))
          (1): BatchNorm2d(160, eps=1e-05, momentum=0.1, affine=True, track_running_stats=True)
        )
        (graph_conv): DyGraphConv2d(
          (gconv): MRConv2d(
            (nn): BasicConv(
              (0): Conv2d(480, 480, kernel_size=(1, 1), stride=(1, 1), groups=4)
              (1): BatchNorm2d(480, eps=1e-05, momentum=0.1, affine=True, track_running_stats=True)
              (2): GELU(approximate='none')
            )
            (get_centroids): HyperedgeConstruction(
              (centers_proposal): AdaptiveAvgPool2d(output_size=(5, 10))
            )
          )
          (dilated_knn_graph): DenseDilatedKnnGraph(
            (_dilated): DenseDilated()
          )
        )
        (fc2): Sequential(
          (0): Conv2d(480, 160, kernel_size=(1, 1), stride=(1, 1))
          (1): BatchNorm2d(160, eps=1e-05, momentum=0.1, affine=True, track_running_stats=True)
        )
        (drop_path): DropPath()
      )
      (1): ConvFFN(
        (fc1): Sequential(
          (0): Conv2d(160, 640, kernel_size=(1, 1), stride=(1, 1), bias=False)
          (1): BatchNorm2d(640, eps=1e-05, momentum=0.1, affine=True, track_running_stats=True)
        )
        (act): GELU(approximate='none')
        (fc2): Sequential(
          (0): Conv2d(640, 160, kernel_size=(1, 1), stride=(1, 1), bias=False)
          (1): BatchNorm2d(160, eps=1e-05, momentum=0.1, affine=True, track_running_stats=True)
        )
        (conv): ResDWC(
          (conv): Conv2d(640, 640, kernel_size=(3, 3), stride=(1, 1), padding=(1, 1), groups=640)
        )
        (drop_path): DropPath()
      )
    )
    (4): Sequential(
      (0): Grapher(
        (fc1): Sequential(
          (0): Conv2d(160, 160, kernel_size=(1, 1), stride=(1, 1))
          (1): BatchNorm2d(160, eps=1e-05, momentum=0.1, affine=True, track_running_stats=True)
        )
        (graph_conv): DyGraphConv2d(
          (gconv): MRConv2d(
            (nn): BasicConv(
              (0): Conv2d(480, 480, kernel_size=(1, 1), stride=(1, 1), groups=4)
              (1): BatchNorm2d(480, eps=1e-05, momentum=0.1, affine=True, track_running_stats=True)
              (2): GELU(approximate='none')
            )
            (get_centroids): HyperedgeConstruction(
              (centers_proposal): AdaptiveAvgPool2d(output_size=(5, 10))
            )
          )
          (dilated_knn_graph): DenseDilatedKnnGraph(
            (_dilated): DenseDilated()
          )
        )
        (fc2): Sequential(
          (0): Conv2d(480, 160, kernel_size=(1, 1), stride=(1, 1))
          (1): BatchNorm2d(160, eps=1e-05, momentum=0.1, affine=True, track_running_stats=True)
        )
        (drop_path): DropPath()
      )
      (1): ConvFFN(
        (fc1): Sequential(
          (0): Conv2d(160, 640, kernel_size=(1, 1), stride=(1, 1), bias=False)
          (1): BatchNorm2d(640, eps=1e-05, momentum=0.1, affine=True, track_running_stats=True)
        )
        (act): GELU(approximate='none')
        (fc2): Sequential(
          (0): Conv2d(640, 160, kernel_size=(1, 1), stride=(1, 1), bias=False)
          (1): BatchNorm2d(160, eps=1e-05, momentum=0.1, affine=True, track_running_stats=True)
        )
        (conv): ResDWC(
          (conv): Conv2d(640, 640, kernel_size=(3, 3), stride=(1, 1), padding=(1, 1), groups=640)
        )
        (drop_path): DropPath()
      )
    )
    (5): DownSample(
      (conv): Sequential(
        (0): Conv2d(160, 400, kernel_size=(3, 3), stride=(2, 2), padding=(1, 1))
        (1): BatchNorm2d(400, eps=1e-05, momentum=0.1, affine=True, track_running_stats=True)
      )
    )
    (6): Sequential(
      (0): Grapher(
        (fc1): Sequential(
          (0): Conv2d(400, 400, kernel_size=(1, 1), stride=(1, 1))
          (1): BatchNorm2d(400, eps=1e-05, momentum=0.1, affine=True, track_running_stats=True)
        )
        (graph_conv): DyGraphConv2d(
          (gconv): MRConv2d(
            (nn): BasicConv(
              (0): Conv2d(1200, 1200, kernel_size=(1, 1), stride=(1, 1), groups=4)
              (1): BatchNorm2d(1200, eps=1e-05, momentum=0.1, affine=True, track_running_stats=True)
              (2): GELU(approximate='none')
            )
            (get_centroids): HyperedgeConstruction(
              (centers_proposal): AdaptiveAvgPool2d(output_size=(5, 10))
            )
          )
          (dilated_knn_graph): DenseDilatedKnnGraph(
            (_dilated): DenseDilated()
          )
        )
        (fc2): Sequential(
          (0): Conv2d(1200, 400, kernel_size=(1, 1), stride=(1, 1))
          (1): BatchNorm2d(400, eps=1e-05, momentum=0.1, affine=True, track_running_stats=True)
        )
        (drop_path): DropPath()
      )
      (1): ConvFFN(
        (fc1): Sequential(
          (0): Conv2d(400, 1600, kernel_size=(1, 1), stride=(1, 1), bias=False)
          (1): BatchNorm2d(1600, eps=1e-05, momentum=0.1, affine=True, track_running_stats=True)
        )
        (act): GELU(approximate='none')
        (fc2): Sequential(
          (0): Conv2d(1600, 400, kernel_size=(1, 1), stride=(1, 1), bias=False)
          (1): BatchNorm2d(400, eps=1e-05, momentum=0.1, affine=True, track_running_stats=True)
        )
        (conv): ResDWC(
          (conv): Conv2d(1600, 1600, kernel_size=(3, 3), stride=(1, 1), padding=(1, 1), groups=1600)
        )
        (drop_path): DropPath()
      )
    )
    (7): Sequential(
      (0): Grapher(
        (fc1): Sequential(
          (0): Conv2d(400, 400, kernel_size=(1, 1), stride=(1, 1))
          (1): BatchNorm2d(400, eps=1e-05, momentum=0.1, affine=True, track_running_stats=True)
        )
        (graph_conv): DyGraphConv2d(
          (gconv): MRConv2d(
            (nn): BasicConv(
              (0): Conv2d(1200, 1200, kernel_size=(1, 1), stride=(1, 1), groups=4)
              (1): BatchNorm2d(1200, eps=1e-05, momentum=0.1, affine=True, track_running_stats=True)
              (2): GELU(approximate='none')
            )
            (get_centroids): HyperedgeConstruction(
              (centers_proposal): AdaptiveAvgPool2d(output_size=(5, 10))
            )
          )
          (dilated_knn_graph): DenseDilatedKnnGraph(
            (_dilated): DenseDilated()
          )
        )
        (fc2): Sequential(
          (0): Conv2d(1200, 400, kernel_size=(1, 1), stride=(1, 1))
          (1): BatchNorm2d(400, eps=1e-05, momentum=0.1, affine=True, track_running_stats=True)
        )
        (drop_path): DropPath()
      )
      (1): ConvFFN(
        (fc1): Sequential(
          (0): Conv2d(400, 1600, kernel_size=(1, 1), stride=(1, 1), bias=False)
          (1): BatchNorm2d(1600, eps=1e-05, momentum=0.1, affine=True, track_running_stats=True)
        )
        (act): GELU(approximate='none')
        (fc2): Sequential(
          (0): Conv2d(1600, 400, kernel_size=(1, 1), stride=(1, 1), bias=False)
          (1): BatchNorm2d(400, eps=1e-05, momentum=0.1, affine=True, track_running_stats=True)
        )
        (conv): ResDWC(
          (conv): Conv2d(1600, 1600, kernel_size=(3, 3), stride=(1, 1), padding=(1, 1), groups=1600)
        )
        (drop_path): DropPath()
      )
    )
    (8): Sequential(
      (0): Grapher(
        (fc1): Sequential(
          (0): Conv2d(400, 400, kernel_size=(1, 1), stride=(1, 1))
          (1): BatchNorm2d(400, eps=1e-05, momentum=0.1, affine=True, track_running_stats=True)
        )
        (graph_conv): DyGraphConv2d(
          (gconv): MRConv2d(
            (nn): BasicConv(
              (0): Conv2d(1200, 1200, kernel_size=(1, 1), stride=(1, 1), groups=4)
              (1): BatchNorm2d(1200, eps=1e-05, momentum=0.1, affine=True, track_running_stats=True)
              (2): GELU(approximate='none')
            )
            (get_centroids): HyperedgeConstruction(
              (centers_proposal): AdaptiveAvgPool2d(output_size=(5, 10))
            )
          )
          (dilated_knn_graph): DenseDilatedKnnGraph(
            (_dilated): DenseDilated()
          )
        )
        (fc2): Sequential(
          (0): Conv2d(1200, 400, kernel_size=(1, 1), stride=(1, 1))
          (1): BatchNorm2d(400, eps=1e-05, momentum=0.1, affine=True, track_running_stats=True)
        )
        (drop_path): DropPath()
      )
      (1): ConvFFN(
        (fc1): Sequential(
          (0): Conv2d(400, 1600, kernel_size=(1, 1), stride=(1, 1), bias=False)
          (1): BatchNorm2d(1600, eps=1e-05, momentum=0.1, affine=True, track_running_stats=True)
        )
        (act): GELU(approximate='none')
        (fc2): Sequential(
          (0): Conv2d(1600, 400, kernel_size=(1, 1), stride=(1, 1), bias=False)
          (1): BatchNorm2d(400, eps=1e-05, momentum=0.1, affine=True, track_running_stats=True)
        )
        (conv): ResDWC(
          (conv): Conv2d(1600, 1600, kernel_size=(3, 3), stride=(1, 1), padding=(1, 1), groups=1600)
        )
        (drop_path): DropPath()
      )
    )
    (9): Sequential(
      (0): Grapher(
        (fc1): Sequential(
          (0): Conv2d(400, 400, kernel_size=(1, 1), stride=(1, 1))
          (1): BatchNorm2d(400, eps=1e-05, momentum=0.1, affine=True, track_running_stats=True)
        )
        (graph_conv): DyGraphConv2d(
          (gconv): MRConv2d(
            (nn): BasicConv(
              (0): Conv2d(1200, 1200, kernel_size=(1, 1), stride=(1, 1), groups=4)
              (1): BatchNorm2d(1200, eps=1e-05, momentum=0.1, affine=True, track_running_stats=True)
              (2): GELU(approximate='none')
            )
            (get_centroids): HyperedgeConstruction(
              (centers_proposal): AdaptiveAvgPool2d(output_size=(5, 10))
            )
          )
          (dilated_knn_graph): DenseDilatedKnnGraph(
            (_dilated): DenseDilated()
          )
        )
        (fc2): Sequential(
          (0): Conv2d(1200, 400, kernel_size=(1, 1), stride=(1, 1))
          (1): BatchNorm2d(400, eps=1e-05, momentum=0.1, affine=True, track_running_stats=True)
        )
        (drop_path): DropPath()
      )
      (1): ConvFFN(
        (fc1): Sequential(
          (0): Conv2d(400, 1600, kernel_size=(1, 1), stride=(1, 1), bias=False)
          (1): BatchNorm2d(1600, eps=1e-05, momentum=0.1, affine=True, track_running_stats=True)
        )
        (act): GELU(approximate='none')
        (fc2): Sequential(
          (0): Conv2d(1600, 400, kernel_size=(1, 1), stride=(1, 1), bias=False)
          (1): BatchNorm2d(400, eps=1e-05, momentum=0.1, affine=True, track_running_stats=True)
        )
        (conv): ResDWC(
          (conv): Conv2d(1600, 1600, kernel_size=(3, 3), stride=(1, 1), padding=(1, 1), groups=1600)
        )
        (drop_path): DropPath()
      )
    )
    (10): Sequential(
      (0): Grapher(
        (fc1): Sequential(
          (0): Conv2d(400, 400, kernel_size=(1, 1), stride=(1, 1))
          (1): BatchNorm2d(400, eps=1e-05, momentum=0.1, affine=True, track_running_stats=True)
        )
        (graph_conv): DyGraphConv2d(
          (gconv): MRConv2d(
            (nn): BasicConv(
              (0): Conv2d(1200, 1200, kernel_size=(1, 1), stride=(1, 1), groups=4)
              (1): BatchNorm2d(1200, eps=1e-05, momentum=0.1, affine=True, track_running_stats=True)
              (2): GELU(approximate='none')
            )
            (get_centroids): HyperedgeConstruction(
              (centers_proposal): AdaptiveAvgPool2d(output_size=(5, 10))
            )
          )
          (dilated_knn_graph): DenseDilatedKnnGraph(
            (_dilated): DenseDilated()
          )
        )
        (fc2): Sequential(
          (0): Conv2d(1200, 400, kernel_size=(1, 1), stride=(1, 1))
          (1): BatchNorm2d(400, eps=1e-05, momentum=0.1, affine=True, track_running_stats=True)
        )
        (drop_path): DropPath()
      )
      (1): ConvFFN(
        (fc1): Sequential(
          (0): Conv2d(400, 1600, kernel_size=(1, 1), stride=(1, 1), bias=False)
          (1): BatchNorm2d(1600, eps=1e-05, momentum=0.1, affine=True, track_running_stats=True)
        )
        (act): GELU(approximate='none')
        (fc2): Sequential(
          (0): Conv2d(1600, 400, kernel_size=(1, 1), stride=(1, 1), bias=False)
          (1): BatchNorm2d(400, eps=1e-05, momentum=0.1, affine=True, track_running_stats=True)
        )
        (conv): ResDWC(
          (conv): Conv2d(1600, 1600, kernel_size=(3, 3), stride=(1, 1), padding=(1, 1), groups=1600)
        )
        (drop_path): DropPath()
      )
    )
    (11): Sequential(
      (0): Grapher(
        (fc1): Sequential(
          (0): Conv2d(400, 400, kernel_size=(1, 1), stride=(1, 1))
          (1): BatchNorm2d(400, eps=1e-05, momentum=0.1, affine=True, track_running_stats=True)
        )
        (graph_conv): DyGraphConv2d(
          (gconv): MRConv2d(
            (nn): BasicConv(
              (0): Conv2d(1200, 1200, kernel_size=(1, 1), stride=(1, 1), groups=4)
              (1): BatchNorm2d(1200, eps=1e-05, momentum=0.1, affine=True, track_running_stats=True)
              (2): GELU(approximate='none')
            )
            (get_centroids): HyperedgeConstruction(
              (centers_proposal): AdaptiveAvgPool2d(output_size=(5, 10))
            )
          )
          (dilated_knn_graph): DenseDilatedKnnGraph(
            (_dilated): DenseDilated()
          )
        )
        (fc2): Sequential(
          (0): Conv2d(1200, 400, kernel_size=(1, 1), stride=(1, 1))
          (1): BatchNorm2d(400, eps=1e-05, momentum=0.1, affine=True, track_running_stats=True)
        )
        (drop_path): DropPath()
      )
      (1): ConvFFN(
        (fc1): Sequential(
          (0): Conv2d(400, 1600, kernel_size=(1, 1), stride=(1, 1), bias=False)
          (1): BatchNorm2d(1600, eps=1e-05, momentum=0.1, affine=True, track_running_stats=True)
        )
        (act): GELU(approximate='none')
        (fc2): Sequential(
          (0): Conv2d(1600, 400, kernel_size=(1, 1), stride=(1, 1), bias=False)
          (1): BatchNorm2d(400, eps=1e-05, momentum=0.1, affine=True, track_running_stats=True)
        )
        (conv): ResDWC(
          (conv): Conv2d(1600, 1600, kernel_size=(3, 3), stride=(1, 1), padding=(1, 1), groups=1600)
        )
        (drop_path): DropPath()
      )
    )
    (12): DownSample(
      (conv): Sequential(
        (0): Conv2d(400, 640, kernel_size=(3, 3), stride=(2, 2), padding=(1, 1))
        (1): BatchNorm2d(640, eps=1e-05, momentum=0.1, affine=True, track_running_stats=True)
      )
    )
    (13): Sequential(
      (0): Grapher(
        (fc1): Sequential(
          (0): Conv2d(640, 640, kernel_size=(1, 1), stride=(1, 1))
          (1): BatchNorm2d(640, eps=1e-05, momentum=0.1, affine=True, track_running_stats=True)
        )
        (graph_conv): DyGraphConv2d(
          (gconv): MRConv2d(
            (nn): BasicConv(
              (0): Conv2d(1920, 1920, kernel_size=(1, 1), stride=(1, 1), groups=4)
              (1): BatchNorm2d(1920, eps=1e-05, momentum=0.1, affine=True, track_running_stats=True)
              (2): GELU(approximate='none')
            )
            (get_centroids): HyperedgeConstruction(
              (centers_proposal): AdaptiveAvgPool2d(output_size=(5, 10))
            )
          )
          (dilated_knn_graph): DenseDilatedKnnGraph(
            (_dilated): DenseDilated()
          )
        )
        (fc2): Sequential(
          (0): Conv2d(1920, 640, kernel_size=(1, 1), stride=(1, 1))
          (1): BatchNorm2d(640, eps=1e-05, momentum=0.1, affine=True, track_running_stats=True)
        )
        (drop_path): DropPath()
      )
      (1): ConvFFN(
        (fc1): Sequential(
          (0): Conv2d(640, 2560, kernel_size=(1, 1), stride=(1, 1), bias=False)
          (1): BatchNorm2d(2560, eps=1e-05, momentum=0.1, affine=True, track_running_stats=True)
        )
        (act): GELU(approximate='none')
        (fc2): Sequential(
          (0): Conv2d(2560, 640, kernel_size=(1, 1), stride=(1, 1), bias=False)
          (1): BatchNorm2d(640, eps=1e-05, momentum=0.1, affine=True, track_running_stats=True)
        )
        (conv): ResDWC(
          (conv): Conv2d(2560, 2560, kernel_size=(3, 3), stride=(1, 1), padding=(1, 1), groups=2560)
        )
        (drop_path): DropPath()
      )
    )
    (14): Sequential(
      (0): Grapher(
        (fc1): Sequential(
          (0): Conv2d(640, 640, kernel_size=(1, 1), stride=(1, 1))
          (1): BatchNorm2d(640, eps=1e-05, momentum=0.1, affine=True, track_running_stats=True)
        )
        (graph_conv): DyGraphConv2d(
          (gconv): MRConv2d(
            (nn): BasicConv(
              (0): Conv2d(1920, 1920, kernel_size=(1, 1), stride=(1, 1), groups=4)
              (1): BatchNorm2d(1920, eps=1e-05, momentum=0.1, affine=True, track_running_stats=True)
              (2): GELU(approximate='none')
            )
            (get_centroids): HyperedgeConstruction(
              (centers_proposal): AdaptiveAvgPool2d(output_size=(5, 10))
            )
          )
          (dilated_knn_graph): DenseDilatedKnnGraph(
            (_dilated): DenseDilated()
          )
        )
        (fc2): Sequential(
          (0): Conv2d(1920, 640, kernel_size=(1, 1), stride=(1, 1))
          (1): BatchNorm2d(640, eps=1e-05, momentum=0.1, affine=True, track_running_stats=True)
        )
        (drop_path): DropPath()
      )
      (1): ConvFFN(
        (fc1): Sequential(
          (0): Conv2d(640, 2560, kernel_size=(1, 1), stride=(1, 1), bias=False)
          (1): BatchNorm2d(2560, eps=1e-05, momentum=0.1, affine=True, track_running_stats=True)
        )
        (act): GELU(approximate='none')
        (fc2): Sequential(
          (0): Conv2d(2560, 640, kernel_size=(1, 1), stride=(1, 1), bias=False)
          (1): BatchNorm2d(640, eps=1e-05, momentum=0.1, affine=True, track_running_stats=True)
        )
        (conv): ResDWC(
          (conv): Conv2d(2560, 2560, kernel_size=(3, 3), stride=(1, 1), padding=(1, 1), groups=2560)
        )
        (drop_path): DropPath()
      )
    )
  )
  (prediction): Sequential(
    (0): Conv2d(640, 1024, kernel_size=(1, 1), stride=(1, 1))
    (1): BatchNorm2d(1024, eps=1e-05, momentum=0.1, affine=True, track_running_stats=True)
    (2): GELU(approximate='none')
    (3): Dropout(p=0.0, inplace=False)
    (4): Conv2d(1024, 200, kernel_size=(1, 1), stride=(1, 1))
  )
)
"opt_warmup":         True
"optimizer":          functools.partial(<class 'torch.optim.adam.Adam'>, lr=0.0005, weight_decay=5e-07, eps=1e-08, betas=[0.95, 0.999])
"scheduler":          functools.partial(<class 'torch.optim.lr_scheduler.MultiStepLR'>, milestones=[10, 15, 20, 25, 30, 35, 40], gamma=0.5)
Epoch 0:   0%|          | 1/735 [00:12<2:37:
…
